memory/defence_target_net.pth (torch, 584303 bytes, 6 tensors)

layer1.weight f4 [128, 768]
000000 2c cd 7e 3c 3e 2d ff bc e2 3f bb 3c 98 27 a6 bb
       0.0155518465 -0.031149503 0.02285761 -0.005070638
000010 ec 1b dd bc 08 7e 66 3c 43 2a 0c bd 98 45 91 bc
       -0.026990853 0.014068134 -0.03421999 -0.01773338
000020 3c 2e 0b 3d a4 60 30 3c ad 43 d6 bc 30 a3 0c bd
       0.03397964 0.010765228 -0.026155317 -0.034335315
000030 8c b7 22 bc fc 05 ea bc 75 b8 05 bd 18 9b d4 bb
       -0.009931456 -0.028567307 -0.032646615 -0.006488215
000040 d0 1e 81 bb e0 69 5d 3b 94 fd 6e 3c 78 fd c5 3c
       -0.0039404407 0.003378503 0.014586825 0.024168715
000050 58 a8 a7 bc 08 c2 2f 3c 84 cb e0 bc 0d b7 8f bc
       -0.020466015 0.010727413 -0.027440794 -0.01754334
000060 a0 fc cc 3b 80 2c 82 b9 0c c0 0e 3d 41 31 fb bc
       0.006255701 -0.00024828687 0.03485112 -0.030663135
000070 be 11 1f bc 04 7d cb 3c 6c 46 26 3c 9c ec 0a 3d
       -0.00970882 0.024839886 0.010148626 0.033917055
000080 a8 8d b0 3c 78 83 c9 3c e0 71 8d ba 6c 1d cd 3c
       0.021551922 0.024598822 -0.0010791384 0.025038444
000090 c8 73 c1 bc f8 3c bb 3c 2c ea f1 3c 9b 29 60 bc
       -0.02361478 0.02285622 0.029530607 -0.0136817945
0000a0 df 60 8e bc b8 8e 22 3c 8c 61 0c bd ea 58 bd 3c
       -0.017380176 0.009921722 -0.034272715 0.023113687
0000b0 d0 34 ec bb c2 0e a1 bc 22 a2 b9 bc 20 f5 fb ba
       -0.007208444 -0.019660357 -0.022660319 -0.0019222833
0000c0 62 9c 13 bd b8 23 af 3b 94 17 22 3c be 67 ef bc
       -0.03603781 0.005344834 0.009893317 -0.029224273
0000d0 6c bb c7 bc 00 79 57 bc 20 0e 72 3b d0 52 d8 bc
       -0.024381362 -0.013151407 0.0036934689 -0.026406676
0000e0 38 4e c7 bc d8 63 f8 3c 8a 59 96 3c 2c 4d 2f 3c
       -0.02432929 0.030321047 0.018353242 0.010699552
0000f0 68 71 bc bb 60 22 e8 bc 26 d8 81 bc 2a 1b d9 bc
       -0.0057508238 -0.028336704 -0.015850138 -0.02650221
000100 54 7b 0a bd e0 bf ce 3a 92 32 5d bc e2 43 0b bd
       -0.03380902 0.0015773736 -0.013500826 -0.034000285
000110 b1 9c 12 bd 88 5d b6 3c 94 38 61 bc 40 af 68 ba
       -0.035793964 0.022261396 -0.013746399 -0.0008876212
000120 a6 dd 0b 3d 78 5d 9a 3c fd 17 8a 3c 3c 48 81 bc
       0.034146927 0.018843397 0.016857142 -0.015781514
000130 34 11 78 3c ac cd ba bb cc ce a8 3c fa fe f9 bc
       0.01514082 -0.0057007875 0.020606421 -0.03051709
000140 ef 31 b3 bc 00 18 5b bb 40 a3 01 bd 8c b1 26 bc
       -0.021874396 -0.0033431053 -0.031649828 -0.010174166
000150 50 de 25 bb 8c d6 dd bc a4 02 5e 3c 58 4f 97 3c
       -0.002530951 -0.027079843 0.013550434 0.018470451
000160 55 02 8f bc 00 ec 0b b9 f0 1c 19 bb c2 fb c5 3c
       -0.017457167 -0.0001334399 -0.0023363195 0.024167899
000170 f4 d2 4c 3c c8 ae f6 3b 02 52 dc bc cc 3d ef 3c
       0.012501467 0.00752816 -0.026894573 0.029204272
000180 e6 15 99 3c 49 6f bf bc 08 fc e6 3c 24 e7 0d 3d
       0.0186872 -0.023368495 0.02819635 0.03464426
000190 00 cd 48 bb 20 83 d3 3a de 90 91 3c f0 b0 56 3b
       -0.0030639768 0.0016137101 0.017769273 0.0032759272
0001a0 a3 0b fc bc f6 2b e3 bc 8c 7c ee 3c 7d 69 c4 bc
       -0.030767268 -0.027730923 0.029112123 -0.023976082
0001b0 b8 07 b5 bc 6d 1d 0d 3c 30 9f 88 3b a4 ff df 3c
       -0.022098407 0.008612973 0.0041693673 0.027343579
0001c0 88 76 7d 3c 68 20 c4 bc 58 2d 07 3c 2c c3 3c bc
       0.015470155 -0.023941234 0.008250557 -0.011521142
0001d0 e4 a4 d2 bc dd d0 0c 3c dc f7 35 3c 30 e7 95 bb
       -0.025713392 0.008594719 0.011106458 -0.004574679
0001e0 dc 58 76 3c 6c 20 e9 3c 40 05 1a 3b c0 68 77 3b
       0.015035834 0.028457843 0.0023501664 0.0037751645
0001f0 28 ad 38 3c 1c 3a 12 bd 7a 6c ad 3c 96 9c ca 3c
       0.011271752 -0.03569995 0.02116989 0.02473287
000200 54 05 b2 bb 7c 05 5b 3c 74 3f 0f 3d 2c e3 92 3c
       -0.005432764 0.013368007 0.034972623 0.01793059
000210 f2 cb 56 bc 2a e1 ac 3c b8 ce f1 3c 64 98 55 bc
       -0.013110148 0.02110346 0.029517516 -0.013036821
000220 94 6b 60 3c 18 46 d3 bc 40 00 53 bb cf 45 82 bc
       0.013697524 -0.02579026 -0.0032196194 -0.015902428
000230 86 5c b1 3c 80 6f 06 3a 00 de e2 b9 00 05 32 3b
       0.021650564 0.0005128309 -0.00043271482 0.0027163625
000240 b0 0d 20 bb 4b 7a 64 3c f0 7e 72 3c e0 d2 a0 ba
       -0.002442222 0.013945173 0.014800772 -0.0012269877
000250 9c 45 13 3d d8 41 d6 3c e0 09 bd bc c0 8a 32 3b
       0.035955057 0.026154444 -0.023075998 0.0027243346
000260 c8 53 a3 bb ff c4 07 bd 46 61 24 bc a8 e1 f6 bc
       -0.0049843527 -0.033146854 -0.010032957 -0.030136898
000270 30 fb a7 3b b7 01 8d bc b8 57 e4 3c 7c c2 84 3c
       0.0051263794 -0.017212732 0.027873859 0.016206019
000280 98 ef 79 bc 18 db e9 3b d8 b5 9e 3c 20 07 f1 3a
       -0.0152548775 0.0071367137 0.01937382 0.0018388964
000290 5e 3f 06 3d 32 96 cc bc a4 b0 d4 bb 2c db f0 bb
       0.032775275 -0.024973962 -0.0064907838 -0.007350346
0002a0 56 65 11 bc 42 34 bb bc 24 c2 c5 bc ca 7e a2 3c
       -0.008874258 -0.022852067 -0.024140425 0.019835848
0002b0 c9 7e 08 bd 01 40 d5 bc dc b4 38 bc 79 a2 82 bc
       -0.033324037 -0.026031496 -0.011273589 -0.015946614
0002c0 70 4d d1 3b 24 c0 f8 3c 30 4e f5 bc 9c 6b 04 bd
       0.006387405 0.030365057 -0.02994451 -0.032329187
0002d0 6e dd b2 bc 48 df e0 3c a0 76 8e bb 2c c0 82 3c
       -0.021834102 0.027450219 -0.0043476373 0.015960775
0002e0 06 bf 11 3d 02 61 8f 3c 7e 30 79 bc 00 0a af ba
       0.035582565 0.017502312 -0.015209315 -0.0013354421
0002f0 e8 e9 f5 3b 6a c7 b7 bc 80 ee cf 3c 26 f6 48 bc
       0.0075046904 -0.022433955 0.02538228 -0.012265718
000300 6c 6e 7f 3c 74 43 f3 3c 58 f7 fb 3c b8 49 ca 3b
       0.0155902915 0.02969525 0.030757591 0.0061733387
000310 e8 d7 06 bd d2 1b be 3c d6 f4 69 bc 8c 8a 0e 3d
       -0.032920748 0.023206625 -0.014279565 0.034800097
000320 ee 23 fd bc ce f3 0e bd 58 73 68 3c a2 1c 7f bc
       -0.030900922 -0.03490048 0.014187656 -0.015570791
000330 5e 62 80 bc 8c 2c 04 3d 0c ae 63 3c 78 53 9b 3c
       -0.015671905 0.032269046 0.0138964765 0.0189607
000340 50 f5 d3 3b 3c 22 ec 3c a0 f2 f4 bb e0 8a 0a bd
       0.0064684525 0.028824918 -0.007475212 -0.033823848
000350 d8 b1 fa 3c 8a ec eb bc 65 86 8b 3b f7 0c 13 bd
       0.03060238 -0.028799314 0.0042579644 -0.035901036
000360 7c 83 be 3c ff 89 06 bd 4c 5b ce bb 80 03 cc bc
       0.023256056 -0.032846447 -0.0062975045 -0.024904013
000370 ee 00 12 3d dc 27 b3 bc 9c c0 a6 bc 00 f4 e5 3b
       0.035645418 -0.021869592 -0.020355515 0.0070176125
000380 9c d7 7f bc 3e 3a 9b 3c 10 07 23 3b 7d f2 b4 bc
       -0.01561537 0.01894867 0.0024876036 -0.022088284
000390 e8 fa 74 bc 68 44 d3 bb 50 1a 5f 3b aa a2 b3 3c
       -0.014952399 -0.0064473636 0.0034042783 0.02192815
0003a0 b0 8c ba bc 58 b0 3f 3c 28 7d 06 3d 40 50 2a 3a
       -0.022772163 0.0116997585 0.032834202 0.00064969435
0003b0 ac 66 94 3c 7f 50 a4 bc 8a e8 cd bc 5d aa a2 bc
       0.018115364 -0.020057915 -0.025135297 -0.019856626
0003c0 b8 d9 ac 3b f4 f5 66 3c ac 4b 8f bc 54 07 81 3c
       0.0052749775 0.014096726 -0.017492138 0.015750565
0003d0 4c 04 b7 3c bd 88 ed bc 3a 37 10 bd c3 42 ea bc
       0.022340916 -0.028995866 -0.03520892 -0.028596288
0003e0 40 09 99 3c 72 a4 a6 bc 01 b3 03 bd 00 1e e0 bc
       0.018681169 -0.020342086 -0.032153133 -0.027358055
0003f0 83 df d2 bc 01 26 c2 39 c0 32 30 bc 0c 27 f5 bc
       -0.025741344 0.0003703088 -0.010754287 -0.029925846

layer1.bias f4 [128]
000000 a2 15 18 bc 30 22 f5 bb 28 5c 4a 3c e9 2d f1 bc
       -0.009282501 -0.007480882 0.012351073 -0.029440837
000010 90 b1 b4 3c 20 e4 fc bc fc 6d 0d 3c 7a 24 89 3c
       0.022057325 -0.030870497 0.008632179 0.016741026
000020 81 f1 04 bd 50 f1 fd bc 4a 59 c4 3c e2 f8 55 bc
       -0.03245688 -0.030998856 0.023968358 -0.013059827
000030 88 27 ee 3c e7 f1 8e bc e0 21 99 3b 4c b3 2c 3c
       0.029071584 -0.017449332 0.0046732277 0.010540795
000040 0a 47 0a bc 60 60 7b 3c f0 88 4d bb 80 52 e2 3a
       -0.008439789 0.015342802 -0.0031362139 0.0017267019
000050 cc e2 4a 3c 78 39 a0 3c 74 57 fe bc 84 b3 f1 3c
       0.012383174 0.019558653 -0.03104756 0.029504545
000060 0c 1e 3b bc c0 7a 10 3d 28 e5 e7 bc 96 80 12 3d
       -0.011420738 0.035273314 -0.028307512 0.03576716
000070 58 3a 46 bc 9e 51 10 bc 6c fe 6c bc 20 5d 3d bb
       -0.012098871 -0.008808522 -0.014464956 -0.0028894618
000080 c0 f2 56 bc 40 0f bb ba c8 bc 9c 3c 0f 15 0c bd
       -0.0131194 -0.0014271513 0.019132987 -0.03419977
000090 18 0b 65 3c 78 fd aa bb 72 b1 98 bc 02 a4 df bc
       0.013979696 -0.005218204 -0.0186393 -0.027299885
0000a0 c2 64 b3 bc 45 ba 06 3d 98 0e f7 3c 56 9a ba 3c
       -0.021898631 0.032892484 0.030158326 0.022778671
0000b0 51 1b c3 bc 1f 9e 0a bd fb 11 99 bc 5a e1 1b bc
       -0.023816736 -0.033842202 -0.018685332 -0.009514177
0000c0 62 f7 00 3d 69 c7 c8 bc 38 e6 bb 3b 00 32 e4 b9
       0.031485923 -0.024509149 0.0057342313 -0.00043524802
0000d0 8e 52 04 3d ac 97 a6 bb b4 f5 cc bb 46 e1 bc bc
       0.032305293 -0.0050839987 -0.006254876 -0.023056637
0000e0 1a e8 06 bc 40 89 d9 3c 38 51 e5 3b f6 c6 5a bc
       -0.008234048 0.026554704 0.0069982074 -0.0133531
0000f0 3c 16 58 bc 84 01 ea 3c b4 8c 0d bd 8c d7 f5 bb
       -0.013188895 0.028565176 -0.034558013 -0.007502502
000100 dc fa 1b bc 2c d5 be 3c e0 27 c6 ba 14 7c 93 3c
       -0.009520259 0.023295008 -0.0015118085 0.018003501
000110 e0 e3 90 3a a8 c2 7e 3c 2a 76 fa bc a0 44 2f 3b
       0.001105424 0.015549339 -0.030573923 0.0026743785
000120 b0 24 1e 3c c0 2e 9f 3b 0c 80 bf bc 98 aa 96 3c
       0.009652302 0.004857868 -0.023376487 0.018391892
000130 b8 96 bc 3b cc d3 5f 3c 90 ff 42 3c 90 b9 0e 3c
       0.0057552718 0.013661336 0.011901751 0.008711234
000140 df 1e 8b bc 4b 7d c9 bc 50 58 fa 3c 16 60 fd bc
       -0.016982494 -0.024595877 0.030559689 -0.030929606
000150 12 dc bd bc 50 e0 b7 3c 42 0a 03 3d 60 75 f2 3c
       -0.023176227 0.022445828 0.031992204 0.029596984
000160 6e 0a 8f bc 58 16 d8 bb f1 0c ea bc 12 46 d9 bc
       -0.017461028 -0.0065944605 -0.028570624 -0.02652267
000170 a1 3a 9a bc c8 ed eb bc c8 9a fc bc c8 fc b1 bc
       -0.018826785 -0.028799906 -0.030835524 -0.02172698
000180 a4 95 d9 3c 34 80 ee 3c 0a 33 62 bc 2c 52 01 bd
       0.026560612 0.029113866 -0.013806114 -0.031572506
000190 80 16 bc bc 52 c7 f2 bc 98 c0 cc 3c c8 d3 32 bc
       -0.022959948 -0.029636059 0.02499418 -0.01091475
0001a0 00 7c 11 39 30 11 e2 3c f0 b8 15 3b 40 d2 19 3c
       0.00013874471 0.027596086 0.0022845827 0.009388506
0001b0 16 04 d6 3c b0 b1 04 3d e0 5d dd 3b 70 21 3e bc
       0.026124995 0.03239602 0.0067555755 -0.011604652
0001c0 94 0e 31 3c 60 76 19 bc dc fc 5e 3c 92 fc 30 bc
       0.010806698 -0.009366602 0.013610091 -0.010802405
0001d0 fe 70 25 bc 40 c2 24 bc 74 da 7f bc 48 23 ba bb
       -0.01009774 -0.010056078 -0.015616048 -0.0056804754
0001e0 40 c5 a7 bc 38 9f 07 3d 6c 53 5b 3c a8 10 b3 bc
       -0.020479798 0.033110827 0.013386589 -0.021858528
0001f0 00 e0 36 3a 90 ec 49 bb 9c 67 ef 3c 78 d8 f6 bb
       0.00069761276 -0.0030811168 0.02922421 -0.0075331293

layer2.weight f4 [128, 128]
000000 b0 3e c3 3c ef fd 94 3d 00 a5 b6 bc fa 40 45 3d
       0.023833603 0.072749965 -0.022295475 0.04815767
000010 b8 58 24 bc c7 7d a7 3d ac f6 2e bd 7d cb 05 bd
       -0.010030918 0.08178287 -0.042715713 -0.032664765
000020 30 42 64 3c 13 91 80 bd da 2a 26 3d d7 33 25 bd
       0.013931796 -0.06277671 0.04056821 -0.04033264
000030 8f 15 a0 3d a2 5d 84 bd a4 07 a2 3c 10 d9 06 bd
       0.07816612 -0.064631715 0.019779034 -0.03292185
000040 54 8a 15 bd c0 06 93 bb f9 45 ad 3d fe b8 8d bd
       -0.036508873 -0.0044868886 0.08460612 -0.0692005
000050 2e d5 1c bd 26 85 71 3d c5 e2 85 bd 89 d8 38 bd
       -0.03828924 0.05896487 -0.065373935 -0.04512838
000060 cd 3d 01 bd da 90 4a 3d 1e 7c 43 3d a0 b4 f2 3c
       -0.03155308 0.049454547 0.04772579 0.029627144
000070 56 56 73 3d dd 7f 1c bd df 68 a6 3d d9 34 8e 3d
       0.05940851 -0.038207877 0.08125471 0.06943674
000080 80 a9 f6 3b 00 34 d1 bb e7 5d 20 bd c1 df a0 3d
       0.00752753 -0.0063843727 -0.039152052 0.07855178
000090 e0 ce bc 3c b1 f7 58 bd 00 51 96 bb 0f 49 93 3d
       0.023047864 -0.052970592 -0.0045872927 0.07191669
0000a0 50 bd c8 3c 40 a5 3d 3b 08 58 a9 bc 91 00 a7 3d
       0.024504334 0.0028937608 -0.02067186 0.08154405
0000b0 ba 2a 83 bd a0 37 b8 bb 38 9f 9f 3c e0 c7 24 3b
       -0.06404634 -0.0056218654 0.019485101 0.002514355
0000c0 09 b8 39 bd c5 4c a7 3d 6a 3f 0a 3d b8 3e 95 bc
       -0.045341525 0.081689395 0.033751883 -0.018218383
0000d0 55 c0 8e bd 00 b3 48 bc 02 c8 01 bd 78 51 3b bc
       -0.06970278 -0.012249708 -0.031684883 -0.011432998
0000e0 d0 c9 39 bd 32 a7 35 bd 57 70 8e 3d 98 54 eb 3c
       -0.04535848 -0.044348903 0.06955021 0.02872686
0000f0 80 d5 f9 3c 20 18 37 bb 84 88 a3 bc 4e 1e 0f bd
       0.030497313 -0.0027937964 -0.019962557 -0.03494101
000100 60 e3 59 bc 48 65 cd bc fd de ac bd 60 e8 ff 3c
       -0.013298839 -0.025072709 -0.08440969 0.031238735
000110 24 34 93 bd 34 3d 9d bc 1b 19 8d 3d da b4 6c bd
       -0.071876794 -0.019194223 0.06889554 -0.05778966
000120 aa b8 ec bc 9b 37 87 3d e0 a7 9b bc 60 4a 49 bb
       -0.028896648 0.06602403 -0.019000947 -0.0030714497
000130 54 3c 8a bc a2 4b 7d 3d d1 b7 83 bd cf ee b3 bd
       -0.01687447 0.061839707 -0.064315446 -0.087857835
000140 ee 2a 1e 3d 20 60 9f 3b 34 a5 b3 bc 00 20 a5 b9
       0.03861516 0.004863754 -0.02192936 -0.00031495094
000150 f2 d4 76 3d e1 fb 88 bd b8 ab 51 3c a2 3b 7b 3d
       0.060261674 -0.06688667 0.012797289 0.061336167
000160 ce bf 66 3d 80 95 7e bd 72 9c 1f 3d 9f 1f 96 3d
       0.056335263 -0.062154293 0.038967557 0.0733025
000170 22 14 3f bd 80 dc 18 bb f8 f5 95 bc 6e 4f 19 bd
       -0.04665006 -0.0023324788 -0.018305764 -0.037429266
000180 ca 6a 30 3d 7d 3c 06 3d 5a e5 e2 bc f0 9d b9 bb
       0.043070592 0.03277253 -0.027697254 -0.0056645796
000190 90 6b 3d bc ac 22 9b 3c 1d 29 9d 3d fa 87 9a bd
       -0.011561289 0.018937431 0.07673857 -0.07545467
0001a0 71 a1 84 3d 18 dc 3a bc 91 86 25 bd 27 33 b1 bd
       0.06476105 -0.0114050135 -0.040411536 -0.08652335
0001b0 1e e4 1d 3d b0 a2 6a 3c 00 56 98 bc 33 f7 92 3d
       0.038547628 0.014321014 -0.018595695 0.07176056
0001c0 86 b6 90 bc fd ae 86 3d 3a d6 46 3d ba 6d 7a 3d
       -0.017665159 0.06576345 0.048544146 0.0611398
0001d0 89 03 93 3d 0a d7 71 3d b0 bf 07 3d 97 f3 a2 3d
       0.07178409 0.059042968 0.03314179 0.07956617
0001e0 32 3c 9e bd 44 d5 75 3d a4 a9 ba 3c 18 da 91 bc
       -0.07726325 0.06001784 0.02278597 -0.01780419
0001f0 4f d3 9c 3d 24 91 66 bd b6 8a 38 3d 24 fb a6 bd
       0.076574914 -0.05629076 0.04505416 -0.0815337
000200 9b ec 8e bd b5 06 8b bd 60 eb 4f bd fa c9 83 bd
       -0.06978723 -0.06788389 -0.05076158 -0.06435008
000210 20 68 c5 bb 81 cb 8b 3d ed b1 a8 bd 39 e3 4c 3c
       -0.0060243756 0.06825925 -0.08237062 0.012505346
000220 a8 aa b0 bc 12 ce 30 3d e8 6c f1 3c f6 24 82 bd
       -0.02156575 0.043165274 0.029470876 -0.06354706
000230 47 63 9b 3d b0 1d d8 3c a0 36 6a bc b8 04 98 bc
       0.07587295 0.026381344 -0.01429525 -0.018556938
000240 12 e9 3d bd 2d 3a 83 bc 2d 86 8a 3d 74 ba dc 3c
       -0.04636485 -0.016018951 0.06763873 0.026944377
000250 e4 44 7f 3d 02 6c dc bc a0 a9 de bc 48 59 93 bc
       0.06232156 -0.02690697 -0.027180493 -0.017986909
000260 50 be f3 3c dc 3f db bc 20 01 7c 3b c8 21 a2 bd
       0.029753834 -0.026763849 0.003845282 -0.079165995
000270 8c 5a e8 bc 04 03 d0 bc e3 62 81 bd 4c a5 44 bd
       -0.028363489 -0.025392063 -0.06317689 -0.048009202
000280 20 fc 25 3b 18 a2 2f 3c 70 3f a9 bb e6 6a 1a bd
       0.002532728 0.0107197985 -0.005165033 -0.037699603
000290 51 52 9e bd 00 a6 76 bb 85 de 01 3d 27 5a 80 bd
       -0.07730544 -0.0037635565 0.03170635 -0.06267195
0002a0 be 21 13 3d a3 05 63 bd 7e a7 10 3d c5 4f 87 bd
       0.03592085 -0.055425297 0.035315983 -0.06607012
0002b0 ac da 7a bd 86 64 0c bd c5 9a 8f bd 2b 9d ab bd
       -0.061243698 -0.034275554 -0.07011942 -0.08379587
0002c0 d4 ea 43 bd ab b9 1c bd cb 00 6a bd 9d 49 9c bd
       -0.04783137 -0.038263004 -0.057129662 -0.07631228
0002d0 45 e2 96 3d 56 62 4a 3d 01 6b b3 3d 3d 49 87 bd
       0.07367376 0.049410187 0.08760644 -0.06605766
0002e0 28 2b a1 bc 18 38 d8 3c 83 f6 64 bc a8 43 6b bd
       -0.019673899 0.026393935 -0.013974789 -0.05743757
0002f0 a4 5b a3 3c 80 04 72 bb b0 80 71 3c bc b9 dd 3c
       0.019941159 -0.0036928952 0.014740154 0.027066104
000300 da 4c 7d bd be 2c 92 3d a0 dd 89 bc ad 64 a2 3d
       -0.06184087 0.0713744 -0.016829312 0.07929359
000310 9f e2 8b bd 70 a3 9d 3c dc a9 a0 3c 79 f1 64 bd
       -0.06830334 0.019242972 0.019612245 -0.05589435
000320 86 55 03 bd 70 c3 8e bc 70 60 d9 bb f5 b8 92 3d
       -0.032063983 -0.017427176 -0.0066338107 0.07164184
000330 e7 0a aa bc b4 6e 91 3c d2 c0 ab bd 9d 8c 89 3d
       -0.020757152 0.017752983 -0.08386387 0.06716273
000340 20 da a3 bc 1d ad 80 3d 7d 70 13 bd 47 da 9c 3d
       -0.020001471 0.06283019 -0.03599595 0.076588206
000350 68 8a 91 bd 53 04 83 3d de f7 7a bd 88 e7 af bd
       -0.07106477 0.06397309 -0.06127154 -0.08589083
000360 9a e6 7b 3d 40 14 be bb 3d 7c 66 bd ea 7c 4b 3d
       0.061499216 -0.005800754 -0.056270827 0.049679674
000370 2d ab 11 bd 50 63 9d 3c 80 b6 b7 3a 0f b4 37 bd
       -0.035563637 0.019212395 0.0014016181 -0.04484945
000380 ca bb 1b 3d b8 30 d0 bc 00 27 a5 bb b1 f8 41 3d
       0.038020886 -0.025413856 -0.0050400496 0.04735631
000390 4c 88 91 bd 5e c1 2d bd 95 ee 09 bd f4 e6 a7 bd
       -0.07106075 -0.042420737 -0.033674795 -0.08198348
0003a0 40 9b 9d bb f5 1c a6 3d 08 e4 81 bc 78 14 9a bd
       -0.004809767 0.08110992 -0.015855804 -0.07523435
0003b0 e4 c5 0b bd 9c 9e 97 bd 6d 46 89 3d 60 7f 3f 3b
       -0.03412427 -0.07403299 0.06702886 0.0029220209
0003c0 36 45 9a bd da c7 58 3d 18 8e bf 3c d8 d5 ba 3c
       -0.07532732 0.05292497 0.023383185 0.022807047
0003d0 d0 5d 5c bc fd 65 ae 3d 00 df b1 bb 30 88 fa bb
       -0.013450101 0.085155465 -0.005428195 -0.0076456293
0003e0 9a bd 74 3d be 7c 20 3d cf bd aa 3d 7e ad 29 bd
       0.05975113 0.039181463 0.08336984 -0.04142522
0003f0 bd 1f 8b 3d ce 28 48 3d fe 14 3c 3d b1 d7 63 bd
       0.06793163 0.04886704 0.045918457 -0.05562562

layer2.bias f4 [128]
000000 14 21 11 3d 18 9c 27 3c 8c 94 14 3d 30 e7 86 bb
       0.035431936 0.010230087 0.036274478 -0.004116915
000010 fd ca 95 3d e4 76 ea 3c 58 61 a1 bd c9 41 97 3d
       0.073141076 0.028621145 -0.07879895 0.073855944
000020 08 3b 79 3c 38 09 0a bd 20 02 27 bb f2 c3 53 3d
       0.015211828 -0.033700198 -0.0025483444 0.05170054
000030 fb ae 71 bd c0 7d 62 3c 12 45 70 3d d8 89 8a bc
       -0.059004765 0.013823926 0.05865962 -0.016911432
000040 f4 dc bc bc 13 c4 86 3d d6 66 6a 3d a0 9e 45 3b
       -0.023054577 0.06580367 0.05722698 0.0030154362
000050 43 68 8e 3d b7 fa b2 3d 21 45 a5 3d 9c 6f a5 bd
       0.0695348 0.08739226 0.08069826 -0.080779284
000060 f0 f3 14 bc 0a ba 90 bd 06 27 26 3d 45 9c 8b 3c
       -0.009091362 -0.07066734 0.04056456 0.017042289
000070 a2 e4 b4 bd dc 74 76 bd 1e 8f 4d 3d 20 91 47 bb
       -0.08832671 -0.06017004 0.050185315 -0.0030451491
000080 ea b1 55 bd 20 58 4f 3d f4 59 a4 bc ac 09 d0 bc
       -0.052171625 0.050621152 -0.020062424 -0.025395237
000090 10 7b ba 3b 60 59 a0 bc d8 db c2 3c 4b 7d 84 3d
       0.0056909397 -0.019573867 0.02378647 0.0646921
0000a0 3c 4f ae bc 67 c9 97 bd 34 dd a1 bc 7c 0b a0 bc
       -0.021278016 -0.07411461 -0.019758798 -0.019536726
0000b0 c8 46 ac 3c b5 a6 a0 3d 95 d2 b1 bd d4 18 e0 bc
       0.021029845 0.07844297 -0.086827435 -0.027355589
0000c0 c7 ee 57 bd 8a 4c b2 bd 94 06 8c 3c 00 a1 3c 3a
       -0.05271795 -0.08706005 0.01709298 0.0007195622
0000d0 72 16 55 bd 03 25 8b 3d dc 35 97 bd fd 2c 81 3d
       -0.05202336 0.06794169 -0.0738332 0.06307409
0000e0 6e 45 2f 3d 7c 9f 9d 3c e8 5c fe bc 94 ae 08 3d
       0.042790823 0.019241087 -0.03105016 0.033369616
0000f0 a2 c9 2b bd 30 3d d5 3c c3 87 b2 3d 0e 10 20 3d
       -0.04194034 0.026030153 0.08717301 0.03907781
000100 f6 d8 67 bd f2 0f 79 3d 45 dc 8c 3d 50 9e 9f 3c
       -0.056603394 0.060806222 0.068779506 0.019484669
000110 82 68 d2 bc 00 01 b0 bc 42 e3 a7 bd be 95 2b 3d
       -0.025684599 -0.021484852 -0.08197643 0.041890852
000120 c0 83 b3 3c 6e b3 7c 3d fb 8e 98 bd e2 26 e1 bc
       0.02191341 0.061694555 -0.07449146 -0.027484361
000130 fe ac 3b 3d 36 6f 62 3d 60 2d 94 3b 24 fc 2e bd
       0.045819275 0.05528184 0.0045220107 -0.04272093
000140 da 65 03 bd 68 39 52 3c 61 ec 38 bd a5 8d 90 3d
       -0.032079555 0.0128310695 -0.045147303 0.070582666
000150 4a 5a 32 3d 94 68 81 bc 7c 4a 97 bc 48 7a d6 3c
       0.043543138 -0.015796937 -0.018468134 0.026181355
000160 20 dc 08 3b 78 bf e4 3c 0c 77 f6 3c 30 c3 5e bd
       0.0020883158 0.02792333 0.030086063 -0.054385364
000170 f4 ad da 3c f2 b6 76 3d c1 65 82 bd 3e c9 93 bc
       0.026694275 0.060233064 -0.06367064 -0.018040296
000180 60 dc 90 bb 6a ce 1c 3d 62 54 4f bd 34 c0 fc 3c
       -0.004420802 0.03828279 -0.050617583 0.030853368
000190 22 9d 18 3d b8 25 b4 bc e0 42 ba bb 6c 27 92 bc
       0.03725923 -0.021990642 -0.0056842417 -0.017841063
0001a0 80 53 a4 ba 62 95 5a 3d 96 07 4a 3d e0 ce 4e bb
       -0.0012537092 0.05336512 0.04932364 -0.0031556413
0001b0 88 23 a3 bc cf 4a a9 3d 1e e0 3b 3d c0 96 ba ba
       -0.019914404 0.08266222 0.04586803 -0.0014235601
0001c0 9d 59 a9 3d 2d 71 83 3d 9c f1 be 3c cc d1 bd 3c
       0.082690455 0.06418071 0.023308568 0.023171328
0001d0 89 68 08 bd 90 22 35 3c 50 d4 89 bd 2e 60 a3 bd
       -0.033302817 0.011055604 -0.067299485 -0.07977329
0001e0 96 57 9e 3d 80 c2 19 bb b0 71 d7 3c 27 94 a9 3d
       0.077315494 -0.0023461878 0.026299328 0.08280211
0001f0 d1 32 9b bd 30 b6 8a bd 96 ae 55 3d 94 8d c1 3c
       -0.07578052 -0.06773031 0.05216845 0.02362708

layer3.weight f4 [237, 128]
000000 15 70 a0 3d f7 06 49 bd de 11 a2 bd 7a d5 56 3d
       0.07833878 -0.049078908 -0.07913564 0.05244968
000010 0f 66 a9 bd a4 82 06 bd 20 58 0b bc b9 89 06 bd
       -0.08271419 -0.032839432 -0.008504897 -0.032846186
000020 72 1e 4d 3d c9 5f 49 bd c0 04 26 bc e8 7a 20 3c
       0.050077863 -0.049163613 -0.010132968 0.009794928
000030 67 2d ae bd f3 6f 93 bd 51 1a 57 bd d5 2f b4 3d
       -0.085047536 -0.07199087 -0.05251533 0.08798186
000040 3c 44 0f 3d 89 46 88 3d c6 c4 8f bd 54 a7 b8 bc
       0.034977183 0.066540785 -0.070199534 -0.022540726
000050 94 02 7a bd 50 30 7f 3c a1 c5 86 bd 17 46 91 3d
       -0.061037615 0.015575483 -0.065806635 0.07093447
000060 83 3d 93 3d 60 44 4c 3b f0 6e c5 bc 74 7e c0 3c
       0.07189467 0.0031168684 -0.02410075 0.023497798
000070 ae 36 42 3d 30 c5 7c 3c 85 97 a0 bd 8a a3 34 3d
       0.047415428 0.015427873 -0.078414 0.044101276
000080 f2 36 98 bd c8 cf 22 bc 38 5a 01 3d 07 ea 3e bd
       -0.07432355 -0.009937234 0.03158018 -0.046609905
000090 68 4a e1 3c 29 e5 11 bd cb 0e 85 3d 38 a7 5b 3c
       0.0275013 -0.035618935 0.06496962 0.013406567
0000a0 bb c8 ab 3d 40 81 a8 bb 37 40 65 bd a4 d6 96 bd
       0.08387896 -0.005142361 -0.055969443 -0.07365158
0000b0 dc ce 77 bd e0 93 81 bc 22 70 40 3d b1 9d cc 3c
       -0.06050001 -0.015817583 0.04698194 0.024977537
0000c0 71 89 8b 3d ef de 95 3d d4 f9 9f 3c 80 04 77 ba
       0.06813324 0.07317912 0.019528307 -0.0009422973
0000d0 2c 59 b6 3c 7c ef 18 bd be 13 92 3d 40 5a db 3c
       0.022259317 -0.037337765 0.07132672 0.026776433
0000e0 5c 67 fe bc 0c 7c b4 bd 78 38 8e 3c 0a 01 3f 3d
       -0.031055145 -0.088127226 0.01736091 0.04663185
0000f0 b8 a5 f7 3c a9 da 05 bd ac ee 8a bc de d2 8d bd
       0.030230388 -0.032679234 -0.01695951 -0.06924985
000100 80 24 1d 3a 35 83 93 bd 00 12 5c 3b d8 be 1b bd
       0.00059945136 -0.0720276 0.0033580065 -0.0380238
000110 34 95 bc bc 3e 88 33 3d 16 23 5e 3d cc 84 88 bc
       -0.023020364 0.043831103 0.05423268 -0.016664885
000120 8e ce 7b 3d 98 17 db 3c e5 13 8a 3d 11 fd 99 3d
       0.061476283 0.026744649 0.06742076 0.07518972
000130 e0 6a d0 3c ee e2 59 3d 50 92 ef bb 42 67 1e 3d
       0.025441587 0.053194933 -0.007311143 0.038672693
000140 a7 bb 41 bd 75 29 9a bd 08 03 06 bd c2 57 37 3d
       -0.0472981 -0.075274386 -0.032717735 0.044761427
000150 51 0d 30 bd b7 3a 58 bd e2 70 8f bd ae 04 5f 3d
       -0.04298145 -0.05279037 -0.070039526 0.054447822
000160 e1 75 c9 bb 6a b5 78 3d c9 8d 5b bd ae 8b 6a 3d
       -0.0061480855 0.060719885 -0.053602014 0.057262115
000170 f8 28 d6 3c c7 30 b1 bd 0c ec 95 3c 68 7d 6b bc
       0.026142582 -0.08651882 0.018301032 -0.014373161
000180 03 93 8b 3d 3a b2 40 3d 43 8e a2 3d 10 cd a3 bd
       0.0681515 0.04704497 0.079372905 -0.07998097
000190 1a 31 2e 3d 7c c1 8e 3c c0 ca 3e 3c b0 a1 98 3b
       0.042527296 0.017426245 0.011645019 0.0046579465
0001a0 72 0f 6d 3d ea f5 2e 3d b8 6b 0a bc 2c 30 74 bd
       0.057876058 0.04271499 -0.008448534 -0.059616253
0001b0 1f c5 84 bd 00 13 f6 3b b3 c8 af 3d 8c f3 a5 3c
       -0.0648291 0.007509589 0.08583202 0.020257734
0001c0 b3 87 a5 bd b5 85 20 bd c0 e7 34 bc 41 99 83 3d
       -0.08082523 -0.039190013 -0.011041582 0.06425715
0001d0 63 72 a5 bd ea 07 4c 3d 0a 93 90 bd 18 f5 54 bd
       -0.08078458 0.049812235 -0.070592955 -0.051991552
0001e0 a8 49 cc bc b9 f2 1e bd 2b 83 a8 bd a0 92 78 3c
       -0.024937466 -0.038805697 -0.08228143 0.015171677
0001f0 70 78 3b bc a6 b1 7a 3d f6 ce 94 3c 3d c6 90 bd
       -0.011442289 0.061204575 0.018165093 -0.07069061
000200 ea 4e 29 bd 6e dc 9f bd 88 16 94 bc a8 d4 24 bc
       -0.041335024 -0.078057155 -0.01807715 -0.010060467
000210 69 1a a1 bd 39 79 a9 3d 48 d8 89 bd f2 ef 77 3d
       -0.078663655 0.082750745 -0.067307055 0.060531564
000220 6e cb 16 3d 7b 6a 9f bd c8 30 07 bc fc 55 b1 bc
       0.0368151 -0.077839814 -0.008251376 -0.021647446
000230 28 63 18 bd 9a 41 97 bd 64 c6 8e 3c b3 c0 1b bd
       -0.037203938 -0.073855594 0.017428584 -0.03802557
000240 33 39 a9 bd 80 cb f0 ba a0 0f cc 3b ff 0e 86 bd
       -0.08262863 -0.0018371195 0.0062274486 -0.06545829
000250 7e 53 2a 3d 20 05 e0 bb 79 57 52 bd 25 05 a3 bd
       0.04158353 -0.0068365484 -0.05135295 -0.079599656
000260 38 45 af bc e3 8c 14 bd 75 a8 89 bd 0e d5 7d 3d
       -0.02139531 -0.036267173 -0.06721584 0.061970763
000270 54 1d 02 3d 36 9d 31 3d c1 21 ab bd 32 00 2e 3d
       0.03176625 0.04336282 -0.083560474 0.042480655
000280 b9 64 b0 3d ef e7 a4 3d 7b 3e 93 3d f3 62 53 bd
       0.08612961 0.0805205 0.071896516 -0.051608037
000290 78 5b 1f bc 73 37 8f 3d 04 07 75 3d 40 48 31 bb
       -0.009726398 0.06992998 0.059821144 -0.002705112
0002a0 0c 34 b3 bc 14 a4 9a bc e0 6f c9 3b e2 43 4c 3d
       -0.021875404 -0.018877067 0.0061473697 0.049869426
0002b0 84 55 9b bd b7 eb 60 bd d3 32 9d 3d e2 4f 77 3d
       -0.0758467 -0.054912295 0.076757096 0.060378917
0002c0 10 2f c1 3b 16 49 4c bd 74 5d de 3c c5 19 81 3d
       0.005895503 -0.049874388 0.027144171 0.06303743
0002d0 46 01 90 bd 0c 3b 11 3d 5e c6 53 3d e0 9f ea 3b
       -0.07031493 0.035456702 0.05170285 0.007160172
0002e0 78 4b a7 bc 77 7e 32 bd 88 1e 95 3c e6 1d 05 3d
       -0.020421728 -0.043577638 0.018203035 0.032499216
0002f0 c0 60 dc 3c a0 0d 52 3c a8 00 04 bd 3d 85 a8 3d
       0.026901603 0.012820631 -0.03222719 0.08228538
000300 e7 87 2a 3d 4a 0c 55 3d bd 30 ac 3d e6 b4 4c 3d
       0.041633513 0.052013673 0.084077336 0.049977206
000310 f0 2a 83 bb 71 c0 41 bd 44 9a b3 3c 73 a4 a3 3d
       -0.0040029213 -0.047302667 0.021924146 0.079903506
000320 ac c8 8a bd e8 1b bd 3c 89 e5 99 bd 89 10 4d 3c
       -0.067765564 0.023084596 -0.075144835 0.012516149
000330 82 b9 3c 3d dc f5 ff bc 00 68 1f b9 1d ef b0 3d
       0.04607535 -0.031245165 -0.00015202165 0.08639357
000340 f3 8c 94 bd e5 d5 9e bd 8e b9 2b 3d 84 b6 1f bd
       -0.072534464 -0.07755641 0.041925006 -0.03899242
000350 2c 6e 05 3d d2 e1 44 3d c0 b0 96 3b b4 5e 9f bd
       0.03257577 0.04806692 0.004598707 -0.07781735
000360 62 87 b2 bd 41 a6 cf 3c 85 1f a6 3d 7b 33 92 bd
       -0.087172285 0.02534783 0.081114806 -0.07138725
000370 42 81 51 3d ae 97 71 bd e6 5e 69 bd 70 23 96 bb
       0.05114866 -0.058982544 -0.056975268 -0.004581861
000380 a0 51 ca 3b b2 42 48 3d 60 e6 1a 3c 90 31 61 3c
       0.0061742812 0.04889173 0.00945434 0.013744727
000390 78 83 92 3c b8 e5 1a bc 2e 3a 80 bd 90 82 9c bc
       0.017884955 -0.009454183 -0.06261097 -0.019105226
0003a0 40 76 9f bc f0 4d ec bc 4a d9 4f 3d 82 0b 7a 3d
       -0.019465566 -0.028845757 0.050744332 0.06104613
0003b0 3a 92 7b 3d b4 d5 84 bd 00 04 1f 3a 12 21 2d 3d
       0.06141875 -0.06486073 0.00060659647 0.042267866
0003c0 87 c7 ae bd 4c 0c 9f bc 09 05 96 bd cc 3e a5 bd
       -0.085341506 -0.019415043 -0.07325179 -0.08068618
0003d0 32 87 80 bd 0a de 4e 3d 00 1a 8d bb e8 b5 9f 3c
       -0.062757865 0.05050472 -0.004306078 0.01949592
0003e0 1d ba 8d 3d f0 ce 8e bb 0a 1d 1d 3d c7 5d 97 bd
       0.06920264 -0.004358165 0.038357772 -0.073909335
0003f0 6e f0 6c 3d 25 ae 85 bd 57 d3 58 bd ed 7b 97 3d
       0.05784648 -0.06527356 -0.052935924 0.07396684

layer3.bias f4 [237]
000000 35 28 83 3b 16 db 4d 3d 6b 15 5e bd 30 4b 7d 3c
       0.004002596 0.050257765 -0.054219645 0.015459821
000010 0f 17 a7 bd 22 1a 4b 3d 70 79 b8 bc 23 51 88 3d
       -0.08158695 0.04958547 -0.022518843 0.066561006
000020 b1 c0 47 bd 97 fb 9a 3d 80 bd 8e 3b d8 f5 cf bc
       -0.04876775 0.07567518 0.0043560863 -0.025385782
000030 6d 88 93 3d fa 02 69 bd 18 8e 8e bd aa 20 78 3d
       0.072037555 -0.056887604 -0.06960696 0.060578026
000040 20 cd cc bb 00 43 85 bb 78 ad 5e bd 48 8a a1 3c
       -0.0062500387 -0.004066825 -0.05436465 0.019719258
000050 5e 31 30 3d 90 54 fd 3c d8 85 d1 3c d6 be 23 3d
       0.04301583 0.030924112 0.025576517 0.039976917
000060 33 3b eb 3b 30 b5 10 3d b4 62 97 3c 58 40 8a bd
       0.007178688 0.035329044 0.018479683 -0.06750554
000070 6a 3d de bb 33 1b a6 3d a9 bd 8f 3d 0e 80 56 bd
       -0.0067822235 0.081106566 0.07018597 -0.052368216
000080 8c 2c b4 bc 68 ff 84 bd 79 e8 97 3d a3 df a7 3d
       -0.021993898 -0.064940274 0.074173875 0.08196952
000090 90 6c 46 bd b2 a1 17 3d e8 70 06 3d 0b f5 98 3d
       -0.048443377 0.03701944 0.03282252 0.07468613
0000a0 3a 3b 41 3d c6 c7 25 bd e8 2b 1c 3c c2 c0 65 3d
       0.047175623 -0.040473722 0.009531952 0.05609203
0000b0 97 46 92 bd 0c e5 05 3d 9e 86 4b 3d 0e db 03 3d
       -0.0714237 0.03268914 0.049688928 0.03219133
0000c0 27 75 8c 3d 20 fb 91 3b 00 0d 6a 3b 14 41 ba bc
       0.068582825 0.0044549853 0.0035713315 -0.02273611
0000d0 35 14 84 3d 4c 8c ba 3c 52 69 73 3d d9 c7 9c 3d
       0.06449167 0.022771977 0.059426613 0.076553054
0000e0 44 e7 d7 3c 0c b3 02 3d ef f8 81 3d 3c 6a bc 3c
       0.026355393 0.031909034 0.063463084 0.022999875
0000f0 72 7f a2 bd 3c 7b 46 bd 1a 24 2a 3d da 93 a6 bd
       -0.079344645 -0.04845737 0.041538335 -0.08133669
000100 73 81 97 3d 01 65 ae bd 17 d3 62 bd 46 ac fc bc
       0.07397737 -0.08515359 -0.055377092 -0.030843865
000110 d2 93 4a 3d ba 5b 61 bd 90 2a 0b bc c6 24 59 3d
       0.04945738 -0.055019118 -0.008494034 0.053013586
000120 0f 39 a0 3d 32 a3 0d 3d e0 0a cf 3c e2 39 72 bd
       0.07823383 0.034579463 0.02527374 -0.059137233
000130 f4 6f af bd c1 48 1c bd 5a db 20 3d ed 3d b0 3d
       -0.08566275 -0.03815532 0.03927169 0.086055614
000140 74 41 be bc 43 4e 49 bd 1d 4a 50 bd 82 37 b3 bd
       -0.02322457 -0.0491469 -0.05085193 -0.08750822
000150 de 41 99 bd 26 01 1e bd e0 f2 7e bc b0 c4 be bc
       -0.07483266 -0.038575314 -0.015560836 -0.023287147
000160 34 07 b1 bd f5 b9 a6 3d 4c de 8f bc ab 35 14 bd
       -0.08643952 0.08140937 -0.017562054 -0.036183994
000170 71 08 35 bd 5f 52 81 3d dc 3e 85 bd d0 2f 99 3c
       -0.044197503 0.06314539 -0.0650613 0.018699557
000180 40 1d b7 3a 1a c1 51 bd 84 5e df 3c f8 2b 82 bd
       0.0013970509 -0.051209547 0.027266748 -0.063560426
000190 d0 ab 96 bb 83 ce aa 3d 81 98 91 bd c0 72 36 3b
       -0.0045981184 0.0834017 -0.07109166 0.0027839392
0001a0 9c 4d 73 bd 48 43 c2 bc b8 78 c9 3c e6 01 b3 bd
       -0.059400186 -0.023713723 0.024593696 -0.087405965
0001b0 18 aa d8 3c 2f ce 62 bd fd 98 93 3d 5e 8f e7 bc
       0.026448295 -0.055372413 0.072069146 -0.028266605
0001c0 27 af af 3d 35 74 8f 3d c0 2a dd bb cc 5d a0 bd
       0.085783295 0.070045866 -0.006749481 -0.0783039
0001d0 3b ac 4b bd ad 97 99 3d a6 e9 f1 bc 34 8a a2 3c
       -0.0497248 0.07499633 -0.029530358 0.019841291
0001e0 20 15 06 bc d7 d4 a5 bd 8e 86 10 bd 3d 02 25 bd
       -0.0081837475 -0.080972366 -0.03528457 -0.040285338
0001f0 50 84 0e bd 14 b5 8c 3c 15 ce 84 3d 98 bc ce 3c
       -0.03479415 0.017176189 0.064846195 0.025236413
000200 a0 e0 3e 3c 5c bd 9f bc f0 6b a6 3c ac 44 0e 3d
       0.011650234 -0.019499473 0.02031514 0.03473346
000210 b2 b9 a8 bd 77 3b 91 3d 83 40 ad 3d 49 a2 83 3d
       -0.082385436 0.0709142 0.0845957 0.06427438
000220 c0 45 39 bc 3b 8f aa 3d 20 dc 8f bd 32 5b 7e 3d
       -0.011308134 0.083281 -0.070244074 0.06209869
000230 bc 1f f8 3c 40 22 d1 3c b0 e4 43 bc b1 f8 8d 3d
       0.03028857 0.025529027 -0.011956379 0.069322
000240 a2 04 04 bd fa a1 0a bd 98 7c b3 bd 44 33 f5 3c
       -0.03223098 -0.03384588 -0.08763999 0.029931672
000250 2c 13 c2 bc a2 8f e7 bc da de 5a 3d 54 15 77 bd
       -0.023690782 -0.028266732 0.053435184 -0.060323074
000260 68 56 65 bc cc a7 aa bd a8 7f 7e bd 80 72 67 bc
       -0.013997652 -0.08332786 -0.06213346 -0.01412642
000270 da 26 d5 3c bc 1e 91 bc 40 b8 82 ba 61 7a a3 bd
       0.026019502 -0.01771485 -0.0009973124 -0.07982326
000280 c1 81 ae 3d 29 01 b1 3d b0 54 f2 bb 0e 82 51 3d
       0.08520842 0.086427994 -0.0073953494 0.05114942
000290 d2 ed 4f 3d 20 92 7d 3b c8 2e 88 bd 56 2b 9d bd
       0.050763912 0.0038691834 -0.06649548 -0.07674281
0002a0 90 b3 9a 3b 7c f9 53 bd b4 60 a9 bd e7 fc 37 bd
       0.0047211125 -0.0517516 -0.08270398 -0.04491892
0002b0 65 c6 a1 3d 54 9e a5 bc d7 5f a6 3d ef 03 a4 3d
       0.07899169 -0.020217098 0.08123749 0.08008563
0002c0 a9 75 a1 3d 4e b2 1a 3d 38 25 3a 3c 98 54 89 3c
       0.0788377 0.0377677 0.011361413 0.01676397
0002d0 2c 53 82 3c 64 ac 9c bd e7 e5 ab bb 6f e5 48 bd
       0.0159088 -0.076500684 -0.0052459124 -0.04904693
0002e0 e1 39 a3 3d e0 c1 36 bd ce 7f 06 3d 68 24 ae bd
       0.07970024 -0.044618487 0.032836728 -0.08503038
0002f0 40 09 78 3b 36 6c 8b bd 22 7f 57 3d da ea 4c 3d
       0.003784731 -0.06807749 0.052611478 0.05002866
000300 1c 70 a5 bd 6a 8f 23 bd 28 d0 76 bc c1 68 af bd
       -0.08078024 -0.039931692 -0.015064277 -0.08564902
000310 01 a0 cf 39 9d 0f af 3d 78 e2 19 bc 16 e2 60 3d
       0.0003960133 0.085479 -0.009392373 0.054903112
000320 bc a7 cb bc 72 2a 27 bd 18 ea 9f 3c f0 3f b7 bc
       -0.024860255 -0.040811963 0.019520804 -0.022369355
000330 d2 4e 72 bd de 7f 2e bd 7c 04 c2 bc cc b8 ca bc
       -0.0591572 -0.042602412 -0.023683779 -0.024746321
000340 9a dc 98 bd 3f ee a1 3d 4c 63 96 3c 32 04 0d 3d
       -0.074639514 0.0790677 0.018357895 0.03442783
000350 ce d1 20 3d 32 d0 78 3d 62 8a 4f 3d ad 3a 87 bd
       0.039262585 0.060745426 0.05066908 -0.066029884
000360 7c 8f 2f bd 6d 8c 9e bd 5c 68 83 3c 73 ca a7 bd
       -0.042861447 -0.07741628 0.016040973 -0.08192911
000370 84 5c 97 bc f9 02 9c 3d 56 24 77 bd 75 95 aa 3d
       -0.018476732 0.076177545 -0.060337387 0.08329288
000380 82 d9 74 3d fc 31 fc 3c c2 55 3c 3d 82 18 64 3d
       0.059777744 0.030785553 0.045980223 0.055687435
000390 6d 0f 87 3d 5a 52 21 bd 9f d2 54 bd 2e 20 4d bd
       0.06594739 -0.039385177 -0.051958676 -0.050079517
0003a0 a8 14 70 bc 14 c8 7f bd 65 6c b2 bd 56 e6 09 3d
       -0.014653362 -0.06244667 -0.08712081 0.03366693
0003b0 70 61 0d bd
       -0.03451675
