memory/prosecutor_target_net.pth (torch, 584391 bytes, 6 tensors)

layer1.weight f4 [128, 768]
00000000: 08de 6e3c 6c62 b23c e339 a4bc 37bf a0bc
00000010: daa1 c43c 42c6 d2bb 4e11 013d a65e 093d
00000020: 286f 8d3c 9a22 88bc e6a0 933c 32e0 00bd
00000030: 8048 0a3b 0adc dbba 00ac 34b8 c464 b1bc
00000040: dac2 5fbc c455 113d 00f6 8eb9 aa2b e2ba
00000050: 2539 823a 26b9 083d 7425 8abc a418 75bc
00000060: fcf2 aabc 8cab fc3c f856 cd3c c363 01bd
00000070: 1de4 0fbd 9276 c7bc 9029 ea3b e091 dfbc
00000080: d03d cbbc 919e b6bc c0a6 053a d01e 6e3b
00000090: 444d 12bd 74c3 6e3c 547c 4a3c 5d03 08bd
000000a0: ae67 0a3d ca42 e73c 3968 c0bc 6ef5 013d
000000b0: b385 dfbc 1496 203c 6326 a6bc ecf6 403c
000000c0: 08d7 203c 20f0 eb3a c637 033d 22eb fcbc
000000d0: 90a7 753b 5c98 02bd 00be f538 405f 2ebb
000000e0: 183e 083c 349c 99bc 98b4 cf3b 5ce9 e23c
000000f0: 86d2 09bd e044 c13c c810 01bc e01b c7bc
00000100: 0350 f5bc 1666 003d 22dc 97bc 8071 dbb9
00000110: f239 843c b48a f23c 2c6e 733c 60d8 4a3c
00000120: c0ae c33a e04c c6ba 00bc a43a 083f 13bd
00000130: c86f b53c ac75 62bc 00c8 fdbb 08d9 b83c
00000140: 5811 8dbb 88aa 6d3c fa4b a23c 0066 203a
00000150: 5414 983c 102d b93c 14de afbc c838 05bc
00000160: 04f0 f83c 40ab 413c d47f 973c 6393 d6bc
00000170: ae3d d83c 50f1 5bbb dc48 a13c e267 09bd
00000180: f56a cfbc 35b2 ebbc c75e 02bd c295 a0bc
00000190: 00ed b9b9 e4e4 02bd 544a 5d3c a82c 8ebc
000001a0: 021c 8abc e851 b33a 60ad 73bb fcdd ed3c
000001b0: 70f6 efbc c6e8 cfbc 1216 0f3d 9c0d 0a3c
000001c0: ec0c a4bb d85b f53b 48ed e33b da73 6abc
000001d0: 6052 d7ba 9628 fbbc d45a 803c 3456 923c
000001e0: 4c5d 023d 8ae6 533a 904d cf3b 906a a03b
000001f0: 5497 f13b c244 013d 5aa0 8c3c 4b26 c7bc
00000200: 00e9 a63b 203e 443b 18da 073d a486 f1bc
00000210: 0c30 1abc d766 8cbc 930a d9bc c799 11bd
00000220: 708f 153c ece4 7bbc dcad d83c f84a 853c
00000230: b762 88bc 1b47 b2bc dc27 0fbd 00ba 90b8
00000240: 84f8 0c3d 90de ddbb 341e 48bc e8f6 763c
00000250: bea5 0c3d 88db 253c 3ab9 d3bc 02a6 10bd
00000260: 7834 dd3c 7ea1 043d 8021 f7bc 3176 44bc
00000270: 48b5 633c 0071 e3b9 2c1f 313c 1676 aebc
00000280: ce3b c43c d093 8bbc a474 153c ac48 373c
00000290: 48b1 00bc 68b6 ef3b 1051 a13b ce7b 003d
000002a0: 20dd 39bb ae09 f1bc bc38 f73c c039 03bd
000002b0: e09d ba3c 70e5 1b3b 9f03 81bc 803d bc3a
000002c0: 74d0 adbb c80b e03c 40b7 fc3a ee58 d6bc
000002d0: c492 c03c 641a 0fbd 18bc 2c3c ea30 5e3c
000002e0: 684e 9fbc 3064 f43b 98ed a4bb 26d2 90bc
000002f0: 5e1e b83c 5cc0 d03c c0fe 12bb baa5 c23c
00000300: 96e6 09bd 988a 223c 6a35 bf3c 10d0 543b
00000310: 50eb 0cbc 5a33 aabc 3c08 dd3c e2d3 b8bc
00000320: 823c d1bb 78a1 513c d63a 4ebc 0c0a 0cbd
00000330: 1ed0 9a3c 008b feb9 4415 d33c 14f0 753c
00000340: f0df 34bb 66db 0f3d 6892 293c 38ee a3bb
00000350: f241 d4bc 0048 14ba 7da6 053d 40f6 1f3a
00000360: bebe 093d 6a8c 11bc 7828 b63b 248e 4f3c
00000370: 29df 88bc 26d5 053d d0bf 12bb 1089 ec3c
00000380: f8f5 3a3c 33d9 c7bc c7fa b0bc 668d 123d
00000390: 400c 25bb f0e0 e03b aac6 bebc 8004 283b
000003a0: 17c5 dfbc 4078 c43a b408 b1bc d06c ff3c
000003b0: f1ba acbc b2b3 d3bc 0078 713a f24f da3c
000003c0: 96f9 41bc d8f0 403c 6a12 d0bc 861c b03c
000003d0: 2fb9 0abd f2f8 0f3d ccc9 103d c4f8 263c
000003e0: 6b4a 8dbc 8855 353c 3387 6fbc 909f 5bbc
000003f0: ac58 a23c 8884 213c 1640 66bc 68c3 f83c
0.014579304 0.021775447 -0.020047134 -0.019622428 0.024002958 -0.0064323256 0.031510644 0.03353753
0.017264917 -0.016618062 0.018021058 -0.03146381 0.0021100342 -0.0016773951 -4.307553e-05 -0.021654494
-0.013657296 0.035482183 -0.00027267635 -0.0017255445 0.0009935243 0.033379696 -0.016863562 -0.014959488
-0.020867817 0.030843519 0.025065884 -0.03158928 -0.035129655 -0.02434853 0.007146068 -0.027291238
-0.024809748 -0.022292407 0.0005098395 0.0036334284 -0.035718217 0.014572967 0.012358744 -0.033206332
0.033790283 0.02823009 -0.023487197 0.0317282 -0.027285432 0.009801406 -0.020281976 0.011777621
0.009816892 0.001800064 0.03203561 -0.030873839 0.0037483908 -0.031883582 0.000117179006 -0.0026607066
0.008315586 -0.018751241 0.006338667 0.027699165 -0.033648036 0.023592412 -0.007877536 -0.024305284
-0.02994538 0.031347357 -0.018537585 -0.000418555 0.016140912 0.029607154 0.01485781 0.012380689
0.0014929399 -0.0015129112 0.0012568235 -0.035948783 0.022148028 -0.0138220005 -0.007744789 0.022564426
-0.004305046 0.01450599 0.01981162 0.0006118715 0.01856438 0.022604495 -0.0214682 -0.0081312135
0.030387886 0.011820614 0.01849357 -0.026193326 0.026396599 -0.0033560582 0.019688062 -0.033546336
-0.025319556 -0.0287715 -0.031828668 -0.01960266 -0.00035462528 -0.03195657 0.013506491 -0.017355278
-0.016859058 0.0013681026 -0.0037182197 0.029036514 -0.029292315 -0.02537955 0.034933157 0.008426096
-0.005006423 0.0074877553 0.0069557764 -0.014309848 -0.0016427748 -0.030659001 0.01566831 0.01786337
0.031827256 0.0008083364 0.006326385 0.0048955157 0.007372776 0.031559713 0.017166305 -0.024310252
0.0050936937 0.0029944256 0.033166975 -0.029483147 -0.009410869 -0.017138882 -0.0264943 -0.035547044
0.009128436 -0.015374403 0.02645009 0.0162711 -0.016648633 -0.021762421 -0.034950122 -6.9011e-05
0.03441669 -0.0067709163 -0.012214232 0.0150735155 0.03433775 0.010123141 -0.025845159 -0.035314567
0.027002558 0.032380573 -0.030167341 -0.01199107 0.013898201 -0.00043381006 0.010810655 -0.021296542
0.023954298 -0.017038256 0.009122048 0.01118676 -0.007854767 0.0073154457 0.0049229935 0.03136807
-0.002836056 -0.029423561 0.03017842 -0.032037497 0.022780359 0.0023787878 -0.015748797 0.001436159
-0.0053043906 0.027349368 0.0019280687 -0.026165452 0.023507483 -0.034937277 0.010542892 0.013561467
-0.019446567 0.0074582323 -0.005033206 -0.017678332 0.022475418 0.02548235 -0.0022429675 0.023760665
-0.03366717 0.009920739 0.0233409 0.0032472648 -0.008601025 -0.02077644 0.026981466 -0.022561971
-0.006385387 0.012794845 -0.01258727 -0.03418927 0.018898066 -0.00048550218 0.025766976 0.015010852
-0.0027599297 0.035121344 0.010349847 -0.005002763 -0.025910351 -0.0005656481 0.03262948 0.0006102063
0.03362917 -0.008883575 0.0055590235 0.012668166 -0.016707974 0.032673977 -0.0022392161 0.02887395
0.011411183 -0.02439556 -0.021603955 0.03577938 -0.0025184304 0.006862752 -0.02328809 0.0025637448
-0.02731566 0.001498945 -0.021610595 0.031179816 -0.021085234 -0.025842521 0.0009211302 0.026649449
-0.011839291 0.011776172 -0.025399406 0.021497976 -0.03386801 0.035149522 0.0353487 0.010191146
-0.0172474 0.0110677555 -0.014619636 -0.013404742 0.019817673 0.009858258 -0.014053365 0.030366614

layer1.bias f4 [128]
00000000: f0b2 0cbc 008f 7439 cef8 023d f8c8 61bc
00000010: 152c b7bc c0b5 72ba 1c9c dd3c 92d8 093d
00000020: 6fa2 e2bc e6cf bc3c 16f4 d6bc 462f 34bc
00000030: 2229 a23c e8c2 a73c 186c f6bc 529f cb3c
00000040: b8ab 0abd f5cb 08bd 4ae9 03bd d847 ffbc
00000050: b6cc c13c 030a e1bc f0c6 663c ac2c 043c
00000060: 508a b33b 609f 423b 19ea a2bc 9c03 e23c
00000070: 754a 87bc 74d2 673c c839 983c 7110 e9bc
00000080: 7452 e7bb ecb9 d63c 5448 1d3c 3e37 b73c
00000090: 64c5 f43c d17e f8bc c807 153c 50a7 b43c
000000a0: 2072 c0bb 60e7 c4bb 70e1 2d3b acb7 023d
000000b0: 2077 a0bb 5006 0bbb b014 e2bb 27ed c7bc
000000c0: 9c08 723c 30f6 7e3c 9236 043d 1ee1 86bc
000000d0: 1f23 8cbc 04ea 083d c928 e5bc 0ae7 b83c
000000e0: d003 813b c039 bb3c 0448 0f3d e085 93ba
000000f0: 835e 97bc 9082 10bd a211 023d 9229 d73c
00000100: 483d 8a3c 24f5 163c 3047 92bb 3314 ccbc
00000110: 5ac8 a8bc 40d9 d43a 5c4e d0bc 2467 df3c
00000120: 7b17 efbb c09f 743b 5870 bdbb 2658 083d
00000130: 5a7a 3cbc 3037 9f3c ff42 20bc 2a7d ba3c
00000140: ccf5 58bc b22e 0b3d 6a6d f6bc 200c b6bc
00000150: 685d cf3b 8c34 503c 5999 89bc 988d 96bb
00000160: 5067 8dbc 20a7 03bb eeaf c8bc 5860 8bbb
00000170: 235e e7bc a42a 0cbc 00a0 8bb9 10ff 8e3b
00000180: 5496 503c 8c56 f63c 0d8f 0fbd e005 c93b
00000190: 2669 b73c 020c 73bc 0a48 c13c 5754 8bbc
000001a0: 9852 4bbc 1b67 82bc 72e8 883c 7e60 06bc
000001b0: a0fc dbbb 6b7f 00bd a3a6 96bc 4c93 ce3c
000001c0: 306e 3d3c 94b7 b03c 978b adbc aec6 8b3c
000001d0: ae3d f4bc cad4 803c f0ab d93b 3ac2 6bbc
000001e0: 803b a33a d840 15bc 9630 c4bc c0bc 133c
000001f0: 7126 83bc ec7b e3bc c400 023d e63c a53c
-0.008587584 0.00023322925 0.03197556 -0.013780825 -0.022359887 -0.000925865 0.027051978 0.033653803
-0.027665345 0.023048352 -0.026239436 -0.010997599 0.019795004 0.02047868 -0.03008084 0.024856243
-0.03385517 -0.033397634 -0.032204904 -0.031162187 0.023657184 -0.027470594 0.014085516 0.008067291
0.0054791346 0.0029697046 -0.019887017 0.027589612 -0.016514996 0.014149297 0.01858224 -0.028450223
-0.0070593897 0.026211701 0.009599764 0.022365209 0.02987928 -0.030333908 0.0090960935 0.022052437
-0.0058729798 -0.0060090274 0.0026532076 0.031913444 -0.0048970133 -0.002121348 -0.006899439 -0.024405075
0.01477256 0.015561625 0.032278605 -0.016464766 -0.01710659 0.0334263 -0.02797355 0.022571106
0.003937222 0.022854686 0.03498079 -0.0011255108 -0.018477684 -0.035280764 0.031755097 0.02626494
0.016874924 0.0092137195 -0.0044640526 -0.024911975 -0.020603348 0.0016239062 -0.02542799 0.027270861
-0.0072965003 0.0037326664 -0.0057812147 0.03328719 -0.01150378 0.019435495 -0.009781598 0.022764761
-0.013242196 0.03398008 -0.03008147 -0.022222579 0.0063282736 0.012707841 -0.016796755 -0.004594516
-0.017261177 -0.0020088628 -0.024497952 -0.0042534284 -0.02824313 -0.008555088 -0.00026631355 0.004363902
0.0127311535 0.030070566 -0.035048533 0.0061347336 0.022389006 -0.014834406 0.023593921 -0.01700799
-0.012409829 -0.015918305 0.016712401 -0.0082017165 -0.006713465 -0.031371515 -0.018390005 0.025216721
0.011561915 0.021571912 -0.021184726 0.017062511 -0.029814567 0.015726466 0.006642811 -0.014389569
0.0012453645 -0.009109698 -0.023948949 0.0090171695 -0.016009541 -0.027769051 0.03173901 0.02017064

layer2.weight f4 [128, 128]
00000000: f4b1 91bd 88ec 7abd 8f3a 69bd 0289 a7bd
00000010: 0fc3 81bd b613 95bd 061a 183d 7eee 923d
00000020: 8ddf ad3d 2291 573d 7473 b9bc bd9f a2bd
00000030: 06d5 3a3d 009e f13b f8fe 553c dd98 0dbd
00000040: 783e f13c 84d3 d6bc 8af5 5d3d a055 773d
00000050: 205b 393b fcf7 8a3c 6b45 a73d ce53 a4bd
00000060: c347 90bd c5c8 53bd 08c8 3db9 76df 713d
00000070: 4067 b4ba 90e3 abbc b83a 8dbd d009 2abd
00000080: a844 f0bc 0eed 683d 1bad 2fbd 642a 0b3d
00000090: e3ca 933d 3807 5cbd 28bd a43c cf4c 48bd
000000a0: 309c 2e3c 8d8d a93d 5350 a13d 6c53 dabc
000000b0: 475f 4fbd e212 8abd 4c10 043d dedc 40bd
000000c0: 0cd3 113d 9d8c 893d 6d13 ab3d 503b 45bc
000000d0: 10e1 6fbd 8e39 323d 02c2 7c3d b294 4f3d
000000e0: 5d09 933d fed2 b0bd f090 a53b 78ba 743c
000000f0: 9a15 4f3d 4e4d 2c3d 936a 61bd b692 fbbc
00000100: 59e1 a7bd 2dd0 2fbd 7e69 4f3d 7a07 433d
00000110: 9eb0 7c3d 6f37 9dbd 74c6 46bd a978 46bd
00000120: cf61 97bd 636c 903d 802e 0f3d 0e69 91bd
00000130: 55cc 973d 8551 873d 4c31 adbd fb42 843d
00000140: 004a 2e39 d089 88bd a608 1d3d 5058 50bd
00000150: 4ec1 723d 7c2c 9abc 4d2d 9a3d d002 b43c
00000160: 983d 83bd 4588 79bd 681a 373c 70d6 bbbc
00000170: a09c 8f3c 5613 5c3d 0789 9ebd d021 74bc
00000180: 00a2 a13a 5a38 acbd 908a 78bc cac5 ffbb
00000190: 1427 723d c467 48bd b50b 0cbd f88e 97bc
000001a0: 71af 943d 4ce9 7fbd b0a5 fcbc fa07 2fbd
000001b0: ef1b a0bd c050 abbd c06c 1a3c 98ae 1abc
000001c0: 1543 ae3d 3857 443c e2c8 6a3d 9683 7dbd
000001d0: e6cb 413d 933d e83c 39da 863d f1b8 89bd
000001e0: 9a2e a1bd d0c6 c43b 1800 64bc 8c22 c93c
000001f0: 1085 a1bc a765 b23d 0e53 78bd 7e33 643d
00000200: 9482 55bd 22ec 98bd 7cca f83c c031 373c
00000210: e0a0 39bc 07e3 02bd 86e8 433d 5ebe 343d
00000220: 13b3 48bd f6f2 a8bd 5c2a 8cbc 58de 3fbd
00000230: 75a2 8d3d 1009 923c 0016 3abc 66da 9cbd
00000240: 80e6 64ba 6122 97bd a062 78bb 6859 113c
00000250: 085a 143d 7075 533c 06c1 2b3d 9d30 8cbd
00000260: 5d29 b03d dc12 7abd 4240 423d 38d6 67bc
00000270: c724 2fbd dcde febc 7c13 e13c 37a8 af3d
00000280: 0132 1ebd 098d 4bbd 5301 813d 0052 00bb
00000290: 569c 2b3d 72c5 73bd 0faa 8b3d f5cf 04bd
000002a0: b03e ec3c acb0 aa3c fa68 6e3d 9063 c4bc
000002b0: 7010 c23c 336c 923d 7068 b43b 856c 93bd
000002c0: bfee b33d 02a3 0b3d 56b6 363d 386f cc3c
000002d0: 3f72 8d3d 5426 093d e4b8 2ebd ec0b 5fbd
000002e0: 58b3 75bc 5d4d abbd 813a b43d 57e1 a93d
000002f0: 606b bbbb 2d24 ac3d 72d2 7d3d 007e bbb9
00000300: 6d2c 853d 9c8f a83c 9e4f 333d 3b58 b1bd
00000310: 7234 3f3d a59c 8dbd 7e29 27bd 140c 9a3c
00000320: f969 0abd b03b 47bc 50c8 273c 0f01 1cbd
00000330: 6813 063c cfb2 b2bd 9863 76bc 975b ae3d
00000340: 3849 08bc ea23 213d 2054 6a3c c04b 4abb
00000350: d5f3 a13d 8a86 663d 9465 76bd 8c54 80bd
00000360: 4f49 9a3d ccfc c93c b26d 29bd 77b3 aabd
00000370: 42d3 37bd 40d8 dd3c 9560 3ebd 5a91 75bd
00000380: 6718 823d 80a9 8c3c 7008 6ebd 0a9f 533d
00000390: 2881 03bd 00e5 503d ab5d acbd 1af0 223d
000003a0: 68c8 8ebd c0bc 32bc 8863 91bd 68d8 6c3c
000003b0: 1e0c 93bd 220d 373d e33d b03d 00be 44ba
000003c0: 6801 693c f026 a6bd 3863 aebd 9d63 9b3d
000003d0: 4d37 a63d b20d 0cbd 685d 7fbc 4666 3b3d
000003e0: f663 153d 280d ee3c 1cd6 b23c 8604 693d
000003f0: cf02 ac3d 3913 af3d e247 713d 2d15 64bd
-0.0711402 -0.06126073 -0.05694061 -0.08180429 -0.063360326 -0.0727915 0.037134193 0.07174395
0.084899046 0.052628644 -0.02263806 -0.07940624 0.04561331 0.0073735714 0.013061278 -0.03456961
0.029448733 -0.026223905 0.054189242 0.060384393 0.0028283074 0.016963951 0.08167537 -0.08023797
-0.070449375 -0.05170514 -0.00018098962 0.059051 -0.0013763681 -0.020982534 -0.06895965 -0.041513264
-0.029329613 0.056866698 -0.042889696 0.033975974 0.07216432 -0.05371782 0.020109728 -0.048901375
0.010657355 0.08278952 0.07876649 -0.026651107 -0.050627973 -0.06741883 0.032242104 -0.047085635
0.03560166 0.06716273 0.083533145 -0.012038067 -0.058564246 0.04351192 0.061708458 0.050678916
0.0717952 -0.086339936 0.0050526783 0.014937036 0.05055771 0.04206591 -0.055033278 -0.030709606
-0.081972785 -0.04292314 0.050637715 0.047614552 0.061691873 -0.07676589 -0.048529103 -0.048454914
-0.073917024 0.07051923 0.034956455 -0.07100116 0.0741202 0.066073455 -0.08456668 0.06458088
0.000166215 -0.06666911 0.038338326 -0.05086547 0.05926638 -0.01882004 0.07528172 0.021973997
-0.064082325 -0.060920972 0.011175729 -0.0229294 0.01753074 0.053729378 -0.0774098 -0.01490064
0.0012331605 -0.08409186 -0.015169755 -0.0078055607 0.0591193 -0.048927084 -0.034190852 -0.01850079
0.07260025 -0.06247835 -0.030840725 -0.042732216 -0.07817828 -0.08365011 0.009425342 -0.00944104
0.08508889 0.011983685 0.057320483 -0.06189307 0.047313593 0.028349673 0.065845914 -0.06724728
-0.07870217 0.0060051456 -0.013916038 0.024552606 -0.01971677 0.08710795 -0.060626082 0.05571317
-0.052126482 -0.07466914 0.03036999 0.011181295 -0.0113298595 -0.03195479 0.047829174 0.04412686
-0.048998903 -0.08249466 -0.017110042 -0.046842903 0.06915752 0.017826587 -0.011357784 -0.07658844
-0.0008731857 -0.07379604 -0.0037900582 0.008871414 0.036218673 0.012906417 0.04193213 -0.0684521
0.086016394 -0.061053142 0.047424562 -0.014150195 -0.042759683 -0.031112127 0.027475111 0.08577006
-0.038621906 -0.04969505 0.06299081 -0.0019580126 0.04189714 -0.05951447 0.068195455 -0.032424886
0.028838485 0.020836197 0.058205582 -0.023973256 0.023689479 0.071495436 0.005505614 -0.07198433
0.087857716 0.034091003 0.044607483 0.024955377 0.06906556 0.03348382 -0.042656794 -0.05445473
-0.014996372 -0.08364365 0.08800221 0.08294933 -0.005719587 0.084053375 0.061968274 -0.00035761297
0.06502614 0.02057629 0.0437771 -0.08659407 0.046680875 -0.06914643 -0.040811054 0.018804587
-0.03379247 -0.012160227 0.010240629 -0.038086947 0.008183338 -0.08725511 -0.015038393 0.08513563
-0.008318238 0.03934089 0.0143022835 -0.0030867904 0.079078354 0.05628065 -0.060155466 -0.06266126
0.07533514 0.024656676 -0.04136438 -0.083350115 -0.044879206 0.027080655 -0.046478827 -0.05995307
0.06352311 0.017170668 -0.058113515 0.051665343 -0.032105595 0.05099964 -0.08416303 0.03977976
-0.06971818 -0.010909259 -0.07099062 0.014455892 -0.071800455 0.04469026 0.08605554 -0.0007505119
0.014221527 -0.081128955 -0.08515018 0.07587359 0.081160165 -0.03419275 -0.015586235 0.045751832
0.036472283 0.029059008 0.02183061 0.05688908 0.08398973 0.08548588 0.058906443 -0.055684257

layer2.bias f4 [128]
00000000: e491 a8bd 80ae f83b 083e 293c 90a1 a2bb
00000010: bc2f e13c c351 aebd ee18 45bd 7f2c 9a3d
00000020: 4694 693d 2766 903d f927 a5bd b0b3 c53b
00000030: 9194 38bd 607f 68bd d07b cfbb 3acd f1bb
00000040: cab7 543d da19 633d 55f4 873d 4836 5fbc
00000050: bc5c c2bc 2e31 113c 20f3 d0bb 70a0 86bd
00000060: f5ad 9b3d f76f 833d 48aa 6a3c e08b 4c3c
00000070: 6c99 37bd bc55 ad3c 4c98 b9bc 00c1 8fbd
00000080: 5a76 86bd 803b 203b b30b 953d b0dd ed3c
00000090: 081d e8bc 68c9 113d e260 eebc 5c2c f63c
000000a0: add7 9c3d bd04 8ebd f99e 21bd 5eb0 623d
000000b0: d0c9 503c 962c 6bbd 3c14 fabc f508 833b
000000c0: 14f8 60bd b839 b6bc f6ab 353d 5327 a03d
000000d0: 68aa 733c 87fc 2abd 2ed9 523d 9b4a 953d
000000e0: 3424 96bd 74d0 8abd 3052 a7bc 3224 5c3d
000000f0: 39a0 acbd c057 85bd 2f05 8e3d 2a62 b1bd
00000100: 3b35 973d f11b a13d b2de 7cbd c9e0 b3bd
00000110: 58d1 0b3c 1f49 2c3d 12ff 553d a0f0 083b
00000120: 9b2e 9d3d b22d f9bc 044a 54bd 6774 0ebd
00000130: f40d eb3c 0dd3 b23d 807a 9c3c 5cac 02bd
00000140: 9b40 b0bd f6d6 8dbd 18a4 30bc eee1 83bd
00000150: 608e 943c 080f 5cbd 92ca 683d 0aa6 3d3d
00000160: de1d 7b3d 6fcc 9abd 4896 76bd 4ca2 5ebd
00000170: 8cb0 8fbd df71 a93d d1b1 b03d f054 68bd
00000180: 0ea7 723d a06a 053b fddd b23d 7e00 033d
00000190: 8abc 743d 3c44 843c 8078 61bc a006 b13c
000001a0: 19e4 a03d d3a3 823d ffdc a53d bbbb ab3d
000001b0: 8a83 8cbd 8dc6 a83d db29 613d bb4f a33d
000001c0: 5e2b 2b3d a0fc 02bc 88f9 623c 1604 95bb
000001d0: e0c8 3bbc 8392 acbd eb0e 81bd 1c2a 7b3d
000001e0: 15e1 aa3d 8a26 efbc e062 a5bd 9bca a33d
000001f0: 6168 2cbd 001a 4dbb 91a9 85bd 3cb0 b6bc
-0.082309514 0.0075891614 0.010329731 -0.0049631074 0.027488582 -0.085116886 -0.048119478 0.07528018
0.05702617 0.07050734 -0.08064265 0.0060333833 -0.04506356 -0.0567621 -0.0063318983 -0.0073792012
0.051933087 0.055444576 0.066383995 -0.0136237815 -0.02372586 0.008861823 -0.006376639 -0.0657357
0.07601539 0.0641784 0.014322825 0.012484521 -0.04482405 0.021159045 -0.022655629 -0.07019234
-0.065655425 0.0024449527 0.07277622 0.029036373 -0.028334156 0.035592467 -0.029098932 0.03005045
0.076583244 -0.069344975 -0.03945825 0.055343978 0.012743428 -0.057415567 -0.030527227 0.0039988705
-0.054924086 -0.02224432 0.044353448 0.078200005 0.014872171 -0.041744735 0.05147665 0.072896205
-0.07331124 -0.067780405 -0.020424932 0.053745456 -0.084289975 -0.065108776 0.069345824 -0.086613014
0.073832 0.078666575 -0.061735816 -0.08783109 0.008533798 0.04206192 0.052245207 0.0020895377
0.07674905 -0.030417297 -0.0518284 -0.03477898 0.028693177 0.08731661 0.019101381 -0.031902656
-0.086060725 -0.06925766 -0.0107813105 -0.06439577 0.018134296 -0.053725272 0.05683381 0.046300925
0.06130778 -0.07558524 -0.060201913 -0.054353997 -0.070160955 0.08273672 0.08627666 -0.056721628
0.059241347 0.0020357743 0.08733747 0.03198289 0.059750117 0.016145818 -0.01376164 0.021609604
0.07856006 0.06378903 0.08098792 0.08385416 -0.068610266 0.082409956 0.054971557 0.07974192
0.041789405 -0.007994801 0.013853438 -0.004547606 -0.011461467 -0.084263824 -0.063016735 0.061319456
0.08343712 -0.029193182 -0.080754995 0.07997628 -0.04209173 -0.0031296015 -0.06526483 -0.022300832

layer3.weight f4 [237, 128]
00000000: a851 c13c bbdd 09bd 4ae8 6e3d 4143 9a3d
00000010: e1c5 993d 877f a33d 0016 71bb 769c 88bd
00000020: 2713 863d 80c4 a3bd 3269 3a3d 8051 673c
00000030: 8483 f83c 1dba 973d 693a 66bd 53af 4fbd
00000040: 2c3f 59bd 009f 8839 ae94 1a3d 65d4 aa3d
00000050: 8cb2 74bd 4097 a4bd 8c01 4ebd be58 33bd
00000060: 2fd8 8a3d 52c9 d83c 6221 d53c 09f0 473a
00000070: f7ee a8bd 7093 553d 70bc c43c ce89 27bd
00000080: fe8c 333d 324c 763d 6c7b b3bc 00eb fd3c
00000090: 681e 463d b60e 4d3d 5af0 2d3d 5193 b13d
000000a0: 003a 0fbc 6ba4 823d 29c8 8cbd 1ebd 70bd
000000b0: 724f 7f3d dfaa ae3d 0703 823d d571 b2bd
000000c0: 67e2 27bd 6068 bcbb 00ba 36ba 753d 06bd
000000d0: 193c 88bd a521 083d 7db0 8abd 7d79 59bd
000000e0: d392 0dbd a823 3d3c f79f 203c f75d ae3d
000000f0: a0cf 20bc 86db 6cbd 0716 973d 771c 823d
00000100: 809c e93a 93c9 803d a493 a3bd 3eb8 3f3d
00000110: d940 8a3d 7ad5 f93b 58ef 673c 23a5 8b3d
00000120: f0a4 b13b a2f9 2e3d 0941 933d fa63 6abd
00000130: f472 0cbd 76a0 f6bc d7ed b33d fc3a d23c
00000140: 4ed3 3d3d 2dfb 87bd e4e9 b63c f7cb 97bd
00000150: c645 94bd 30d4 d53c ae48 2f3d 8036 403c
00000160: 73a8 1dbd 833b 8e3d f12a a6bd b8ab 8abc
00000170: 5488 88bd dd4b 97bd 10b7 91bc 8776 1abd
00000180: bee5 563d b44e 30bd f0bb 27bc d2a7 2ebd
00000190: 9007 5abc c06b 923c d6d5 463d 30c7 f13b
000001a0: 9351 b33d 7a2f 343d d598 07bd 38ab 363c
000001b0: a699 4bbd 508e 093c 785d 66bc c8ac 19bc
000001c0: d2a7 3a3d 56f3 9c3d 4b1d 08bd 6802 3abb
000001d0: 3a2e 70bd 2091 b23c eca6 83bc 6290 8fbd
000001e0: 4e46 93bd b987 a5bd 00af ecb9 1882 8cbd
000001f0: 7c41 a6bc 8e7e 253d 5b93 41bd 4c76 46bd
00000200: 609e c23b 0a18 aebd b0d3 aebd 5420 0f3d
00000210: 0bbb 3bbd d049 aa3c 739a 63bd 86b1 163d
00000220: 783b 803c 120d 663d 19a5 41bc 2cec a03c
00000230: 3c1b ea3c f0af dbbb 6aba 733d 6bea 2cbd
00000240: 1448 d73c 6848 853c e420 b6bc 035b 67bd
00000250: 6fa6 913d 84dd 083d f8b5 7b3c 28ff 6d3c
00000260: 102a 3fbc b813 d4bc 6aa1 9ebd 84e9 b7bc
00000270: 5674 3b3d 4bc8 993d 70f6 a53c d08a ea3b
00000280: a014 ee3b 8709 7ebd a9d4 14bd 4ebd b4bd
00000290: 0606 4cbd 40bd 24bb 0808 083c 1a1c a5bd
000002a0: 3009 89bd cb73 afbd 16d0 42bd 590f 863d
000002b0: d151 3fbd 7af0 283d b2d0 623d 988a bbbc
000002c0: 49c2 58bd 04b2 fe3c 481a 79bd 18fc 30bc
000002d0: dddb b03d 02d1 663d 3655 233d b5be 933d
000002e0: f02c b0bd 7945 46bd 237b 873d 689d 1ebd
000002f0: a8b0 37bd aa4b 4bbd ba79 1c3d b17c 45bd
00000300: 987e 1ebd dc53 b2bc 828d 2fbd 0e71 283d
00000310: af8b 87bd 9f0f 8d3d 387a 8abd 5a46 8bbd
00000320: 84bf a43c 940c b5bc aa5d 223d 855d 843d
00000330: 50f0 e23c e4fd b2bc 874b 9c3d 0156 86bd
00000340: ed87 5ebd f201 6a3d a0b1 c03c 72ba 3dbd
00000350: 6257 2d3d f49e 66bd 8c25 71bd 702b 71bc
00000360: 7844 0cbc ec13 7abd 3291 68bd 59ef 88bd
00000370: e413 c93c 62b5 123d ae4c 513d 47bb ad3d
00000380: b09f cbbc 9d72 993d f735 56bd f0e2 e33b
00000390: a8d8 0ebc 72e8 9fbd 18b6 1cbc 16a0 9ebd
000003a0: 40fd feba dd9c 79bd b2be 2fbd 509a abbd
000003b0: 57de b33d 0deb 923d 5e90 9d3d 4c0e 8ebd
000003c0: 3e1b 563d dcbc babc fe16 4b3d 0058 c03a
000003d0: 4111 823d ca68 e93a a69f 763d 1870 34bd
000003e0: aab9 db3b 8044 3d3c 78da b4bd 8021 a0bd
000003f0: cee1 79bd 8ec0 363d 40e1 ddba 140c ff3c
0.023598507 -0.033658724 0.058326997 0.07532359 0.075084455 0.07983308 -0.0036786795 -0.066704676
0.06546622 -0.07996464 0.04551048 0.014118552 0.030336149 0.07408545 -0.056208048 -0.05070431
-0.05303876 0.00026058406 0.03773945 0.08341292 -0.059740588 -0.08036661 -0.050294444 -0.043785803
0.06779515 0.026463185 0.026016895 0.00076270156 -0.08248704 0.05214256 0.024015635 -0.040902905
0.043835633 0.06013126 -0.021909438 0.030995846 0.04836884 0.050062858 0.042465545 0.086706765
-0.008741856 0.063790165 -0.06874115 -0.058774106 0.062331624 0.08528685 0.06348234 -0.08713118
-0.0409874 -0.005749747 -0.0006970465 -0.032773454 -0.06652088 0.03323521 -0.06771944 -0.053094376
-0.03456385 0.011544146 0.009803764 0.08514016 -0.009815127 -0.05782654 0.07377248 0.063530855
0.001782313 0.06288447 -0.079871446 0.046806566 0.0675065 0.0076243253 0.014156185 0.06818607
0.0054212734 0.042718537 0.07190139 -0.05722425 -0.034289315 -0.03010581 0.08785599 0.025662892
0.046344094 -0.06639705 0.022328325 -0.0741195 -0.07239871 0.026102155 0.042793922 0.011731744
-0.038490724 0.06944945 -0.08113659 -0.016927585 -0.066666275 -0.07387517 -0.017787486 -0.037710693
0.052465193 -0.043043807 -0.010237679 -0.042640515 -0.013307467 0.017873645 0.048543774 0.0073784813
0.087557934 0.04399059 -0.033104736 0.01114922 -0.049707077 0.008395746 -0.014060371 -0.009379573
0.045570202 0.076636 -0.03323106 -0.0028382782 -0.058637835 0.021797717 -0.016070805 -0.07009961
-0.07191144 -0.08082528 -0.00045143813 -0.06860751 -0.020294897 0.040403895 -0.04725967 -0.04845266
0.00593929 -0.08500679 -0.0853647 0.03494294 -0.045832675 0.02078715 -0.055567216 0.036790393
0.015653357 0.05616481 -0.0118191475 0.019643866 0.02857744 -0.006704323 0.05950395 -0.042215746
0.026279487 0.016269878 -0.02223248 -0.05648328 0.07111823 0.03341438 0.015363209 0.014526166
-0.011667743 -0.025888309 -0.07745631 -0.022450216 0.045765243 0.07508906 0.020259112 0.007157661
0.0072656423 -0.062020805 -0.03633562 -0.088251695 -0.049810432 -0.0025137216 0.008302696 -0.080620006
-0.066912055 -0.08567008 -0.047561727 0.06545896 -0.046708886 0.04124496 0.05537481 -0.022893235
-0.05291966 0.031090744 -0.06081608 -0.010802291 0.086356856 0.05635167 0.039876185 0.07214109
-0.08602321 -0.048406098 0.06615283 -0.038724333 -0.044846207 -0.049632706 0.038202025 -0.048214618
-0.038694948 -0.021768503 -0.04285956 0.041123442 -0.066184394 0.06887745 -0.067615926 -0.06800528
0.020110853 -0.022100724 0.039640106 0.0646315 0.02770248 -0.02184958 0.07631593 -0.06559373
-0.054328848 0.05713076 0.023522198 -0.046320386 0.042319663 -0.056303933 -0.058873698 -0.014719829
-0.008561246 -0.061054155 -0.056779094 -0.06686277 0.024545617 0.03581751 0.051098518 0.08482986
-0.024856418 0.07492564 -0.05229756 0.0069545433 -0.008718647 -0.07808007 -0.009564899 -0.07745378
-0.0019454136 -0.060940612 -0.04290647 -0.08379042 0.08782642 0.07173739 0.076935515 -0.06936321
0.052272074 -0.022795133 0.049582474 0.0014674664 0.06350947 0.0017807719 0.060210846 -0.044052213
0.0067054825 0.011551976 -0.08830732 -0.078188896 -0.06100636 0.04461723 -0.0016928092 0.031133689

layer3.bias f4 [237]
00000000: 11c4 8d3d 676a 9bbd 1abf 413d 30e3 6bbc
00000010: 9a1f 663d 0891 7fbd 1ffb 943d c6e7 5d3d
00000020: 40a2 98bb b07e 4cbc 60eb eb3b d8d0 d63c
00000030: f804 6a3c 2c14 8abd 67b3 a9bd 207f d1bb
00000040: 402c 56bc 63b3 a33d cee6 7d3d 611f a63d
00000050: 9aeb f8bc d218 3d3d 588f 3dbd e8e5 893c
00000060: 0839 53bc c05b c63a 5025 54bd 182d 1f3c
00000070: a633 5a3d 425f 393d 6db3 9dbd 4915 b03d
00000080: c75f a43d fc83 aebd a0ca 423c 6ec9 163d
00000090: 4cde cd3c 6071 5f3b 706b 06bc b4c3 96bc
000000a0: bd3d aa3d b0d1 973c 0570 5dbd 300a a33c
000000b0: c04c 953c 69ed 63bd fc2b b8bc cf06 923d
000000c0: 3456 acbd 86a8 3dbd 6e50 71bd 204b 933c
000000d0: 536d 853d d4e1 86bc b8fd 103c 9585 8e3c
000000e0: 4af2 703d c1d7 44bd ba0c 103d 7b7e 863d
000000f0: ccdf 8cbd 5896 b8bc 62d6 203d bc69 733d
00000100: c1b3 823d 24ae 7abd 9691 343d 0409 833c
00000110: c255 4cbd 66f5 043d fbb1 a93d 51e9 85bd
00000120: 1c39 0f3d 9008 fcbb 7d5f 57bd 3881 fd3c
00000130: 5f5d 8e3d 47ae 8d3d 4295 e9bc b00e 1bbc
00000140: af26 8a3d 7974 31bd b715 9ebd 002f 263a
00000150: 32df 153d a745 893d 8c37 c6bc debe 7a3d
00000160: f6ce 473d a431 0dbd 703f 8fbd f2fe 583d
00000170: a0e6 463c a618 6d3d 4e84 113d 5a79 483d
00000180: 2626 5e3d 30c0 28bc b11e a63d 58ca 9cbc
00000190: 1825 d1bc 4c08 8ebc 582e a4bd 575c 68bd
000001a0: cb91 85bd f0ab 2f3c 904a dd3b 0c17 c33c
000001b0: 8288 32bd da90 573d 9636 3d3d 1a6e 313d
000001c0: 4af1 423d 0894 103c dfab 833d 3073 ae3b
000001d0: 28b9 a3bc 2098 c93c 5cb4 d93c 2a6e 1f3d
000001e0: 1661 713d 1087 26bc 4f79 9f3d 11dc b23d
000001f0: ca0d 83bd b0b6 5e3c 25f7 8c3d 045e 9ebc
00000200: a4e5 86bc d21a f1bc 2b9e 44bd 965f 4dbd
00000210: 89c4 1dbd e050 43bc 6520 aa3d 6468 f03c
00000220: a8e4 5abc fd09 20bd eecc aebd e044 1ebd
00000230: 2197 94bd d17f 4fbd 5231 573d 9440 8fbd
00000240: beb4 683d 30ee b23b a912 a5bd 2c14 77bd
00000250: 51d1 8d3d 7600 6b3d a0ca 40bc 20e9 23bc
00000260: 17ba a2bd c1da 8e3d 8849 ba3c a5a6 22bd
00000270: 6071 b93c a065 fabb 6015 f43b 6057 733b
00000280: 183c 22bd 7505 8d3d f02d 3c3c d0f7 06bd
00000290: cdd7 853d b0d2 cc3b 3a2d 703d 80e7 653c
000002a0: 3cf8 23bd a026 78bd 646a 6bbd ecf0 823c
000002b0: 7005 22bd 228a 3a3d 7679 283d 0f8b a8bd
000002c0: 4d4f 89bd 805f 693b 3aea 5f3d a296 393d
000002d0: 0602 643d 812d 75bd 573a 9a3d 9560 62bd
000002e0: 10c1 28bd b182 443d 56bd 373d 8a87 783d
000002f0: bcf2 713d 204d d03b 5bce a4bd fae5 81bd
00000300: 8839 61bd cd7c 29bd 7316 b1bd 7682 07bd
00000310: 20e1 883c b1fd b23d af64 59bd c0a9 483c
00000320: 82ae 083d 80f1 f53b 6b2b 8a3d 2843 a83c
00000330: 7ae0 483d 38b1 a3bc f92b afbd 3832 af3c
00000340: 904c c63c eae7 233d 480d 19bc e01e 97bc
00000350: cc2a 0cbd a07a 4fbc b016 f7bb 1868 21bd
00000360: e0b5 5ebb 3b35 72bd 205a 1a3b b054 b6bc
00000370: 9601 82bd 887d 073c 3696 093d 26e1 d7bc
00000380: 88bd 063d c053 bebb 2558 09bd a004 a23c
00000390: 738f 9e3d 3d33 9a3d d832 0bbd e315 973d
000003a0: 808b 75ba 10ab 993b 5934 b4bd 5d64 8f3d
000003b0: a609 0a3d
0.06922162 -0.07588654 0.04730139 -0.014397427 0.05618248 -0.062394172 0.0727446 0.054176114
-0.0046580136 -0.0124813765 0.0071996897 0.026222631 0.014283411 -0.06742129 -0.082861714 -0.0063933283
-0.013072073 0.079932 0.06198769 0.08111454 -0.030385781 0.04616625 -0.04627928 0.01683326
-0.012892015 0.0015133545 -0.051793396 0.009715341 0.053271912 0.04525686 -0.077002384 0.0859781
0.080260806 -0.08521268 0.01188913 0.036813192 0.025130413 0.0034094676 -0.008204326 -0.018403865
0.08312557 0.018532604 -0.05406191 0.019902319 0.018225074 -0.055646334 -0.02248191 0.07130205
-0.084148794 -0.046303295 -0.058914594 0.017980158 0.065149926 -0.016465105 0.008849554 0.017397681
0.058824815 -0.04805732 0.035168387 0.06567093 -0.06878623 -0.022532627 0.03926695 0.059427008
0.063819416 -0.06120123 0.044084154 0.01599551 -0.049886473 0.032460593 0.082859 -0.06538642
0.034966573 -0.0076914504 -0.0525813 0.030945405 0.06951403 0.069180064 -0.028513554 -0.009463951
0.067456596 -0.043323968 -0.077189855 0.0006339401 0.03658981 0.06702738 -0.024196409 0.06121718
0.048781358 -0.03447117 -0.069945216 0.05297751 0.012139946 0.057884835 0.035526566 0.048943855
0.0542356 -0.010299727 0.08111323 -0.019139454 -0.025530383 -0.01733794 -0.08016652 -0.056728687
-0.065219484 0.010722145 0.0067532733 0.0238147 -0.043587215 0.052628376 0.046194635 0.04331789
0.047593392 0.008824356 0.06429266 0.00532379 -0.01998575 0.024608672 0.02657526 0.03892342
0.05893048 -0.010164037 0.0778681 0.087333806 -0.063991144 0.013593361 0.068830766 -0.01933194
-0.016466923 -0.029431734 -0.048002403 -0.050139986 -0.03851751 -0.011921138 0.0830696 0.029346652
-0.01336018 -0.039072026 -0.08535181 -0.038639903 -0.07255388 -0.050659005 0.05253727 -0.06994739
0.056812994 0.005460523 -0.080602 -0.06032197 0.069246896 0.057373486 -0.01176706 -0.010004312
-0.0794565 0.06975318 0.02274014 -0.039709706 0.02263707 -0.007641509 0.007448837 0.0037130937
-0.03960809 0.068858065 0.011485562 -0.032951176 0.06535301 0.006250702 0.05863688 0.014032245
-0.040031657 -0.06058371 -0.05747451 0.015984021 -0.039555967 0.04554189 0.04113146 -0.08229648
-0.067045785 0.00356099 0.054666735 0.04530967 0.055665992 -0.05985785 0.07530659 -0.05526789
-0.041199744 0.0479762 0.0448583 0.060676135 0.05906938 0.0063568503 -0.08047172 -0.06342693
-0.054986507 -0.041378785 -0.0864686 -0.0330834 0.01670891 0.08739794 -0.053074535 0.012247503
0.03336955 0.0075055957 0.067465626 0.020539835 0.049042203 -0.019981965 -0.08553309 0.02138625
0.02420643 0.040016092 -0.009341545 -0.01844734 -0.0342205 -0.012663513 -0.0075405464 -0.039405912
-0.0033982918 -0.059132796 0.0023552254 -0.022257179 -0.06347959 0.008269675 0.033590518 -0.026352476
0.032895595 -0.0058083236 -0.033531327 0.019777596 0.077422045 0.07529304 -0.033984035 0.073772214
-0.00093667954 0.0046895817 -0.08799047 0.07001565 0.033700608
